AutogluonModels/ag-20241027_042736/models/NeuralNetTorch/temp_model.pt (torch, 247970 bytes, 9 tensors)

weight f4 [128, 81]
0	0xbcffff7d	-0.031249756
1	0x3c8836e2	0.016627733
2	0xbe2e5ca3	-0.17027526
3	0xbdefeced	-0.11715112
4	0x3d2f0b72	0.042735524
5	0xbd24c211	-0.04022414
6	0x3d2bfdff	0.041990276
7	0x3ccfe886	0.02537943
8	0x3ac00fcd	0.0014653146
9	0x3b2675ba	0.002539976
10	0xbc73386e	-0.014844997
11	0x3bc784f6	0.006088848
12	0xbcf17873	-0.02947638
13	0x3c2b4616	0.0104537215
14	0xbddc3390	-0.10752022
15	0x3d9e9316	0.07742898
16	0x3df21526	0.1182044
17	0x3c72b012	0.014812486
18	0xbda5e9f5	-0.081012644
19	0xbd7aa11c	-0.061188802
20	0x3cabf62a	0.020991404
21	0x3e2c8c43	0.1685038
22	0xbbebeb6a	-0.0071996944
23	0x3d83beb0	0.06432855
24	0xbde42dca	-0.11141546
25	0x3c1e008a	0.009643683
26	0x3dd91ccf	0.10601198
27	0xbe1a160a	-0.1504747
28	0xbda71570	-0.08158386
29	0x3d53d37c	0.05171536
30	0xbd8f44b4	-0.06995526
31	0x3c4d96fc	0.0125482045
32	0xbda9b922	-0.082872644
33	0xbd88f44e	-0.066872224
34	0xbdc5c456	-0.09656589
35	0xbd9dd7b6	-0.07707159
36	0xbe23624f	-0.1595547
37	0x3deb6b05	0.11495022
38	0x3d48ab88	0.04899171
39	0x3e2aee1a	0.16692391
40	0x3d3f2da5	0.04667439
41	0xbd20efce	-0.039291196
42	0xbd038d62	-0.032117255
43	0xbdd9d4cb	-0.1063629
44	0xbdce2158	-0.100649536
45	0xbdcb53bf	-0.09928083
46	0xbd6f58ea	-0.058434404
47	0x3d62de91	0.055388037
48	0x3c71a9f1	0.01474999
49	0x3d428417	0.047489252
50	0x3d50a19a	0.050935365
51	0x3d1c915d	0.038224567
52	0x3d9194da	0.07108469
53	0xbd2c5eb2	-0.042082496
54	0x3c9c4edc	0.019080572
55	0x3ad3f234	0.0016170205
56	0xbc9f6b10	-0.019460231
57	0x3b40765b	0.002936742
58	0xbbeab4f1	-0.007162683
59	0x3d3c462d	0.045965362
60	0xbc4c351d	-0.012463835
61	0x3d23f135	0.040024955
62	0xbdc4b2df	-0.096044295
63	0x3d90b4a2	0.07065703
64	0xbd09054c	-0.033452317
65	0x3df22bf0	0.11824787
66	0x3bee89a1	0.0072795902
67	0x3e2a7639	0.16646661
68	0xbd66443c	-0.056217417
69	0x3e1a00ea	0.15039411
70	0xbdc0d492	-0.094155446
71	0x3d8625b1	0.06550158
72	0x3dd466cd	0.1037117
73	0x3e885e19	0.2663429
74	0x3d6cfe35	0.05785962
75	0x3e09158a	0.13387123
76	0xbc84bbf9	-0.016202914
77	0xbe384fba	-0.17999163
78	0xbe154f53	-0.14581041
79	0xbe5923ba	-0.21205035
80	0xbe537e07	-0.20653544
81	0x3db258a7	0.08708315
82	0x3b8b4e90	0.0042513087
83	0xbe130ee8	-0.14361155
84	0x3cf6e9de	0.030140813
85	0x3d91cb26	0.071188256
86	0x3afba334	0.0019198419
87	0xbda37476	-0.079811975
88	0x3d70094e	0.058602624
89	0xbcfe7b88	-0.031064764
90	0xbb9e817f	-0.0048372145
91	0xbc80e103	-0.015732294
92	0x3c3ccb91	0.011523143
93	0x3cd3d65e	0.025859054
94	0xbd840420	-0.06446099
95	0xbcf52dbd	-0.029929036
96	0x3e1ca2c5	0.15296467
97	0x3d971f36	0.07379
98	0xbdae4b28	-0.08510429
99	0xbd32c91f	-0.043648835
100	0x3b27f773	0.002562967
101	0x3df317e2	0.1186979
102	0xbc0e8e18	-0.00870087
103	0x3db56a4c	0.08858165
104	0xbd83e68b	-0.06440457
105	0x3c7135e4	0.014722321
106	0xbd7c9835	-0.061668593
107	0xbce6fbff	-0.028196333
108	0xbc831e16	-0.016005557
109	0xbc95d00f	-0.018287687
110	0xbda3f34e	-0.08005391
111	0xbc91efb8	-0.017814502
112	0xbc5a940c	-0.013340961
113	0x3d9aef77	0.075652055
114	0x3c5e997b	0.013586397
115	0xbd889aa5	-0.06670121
116	0xbce9991e	-0.028515395
117	0xbc405c18	-0.011740707
118	0xbd6e0dbe	-0.058118574
119	0x3d97cfb6	0.074126646
120	0x3bdd15ef	0.0067469995
121	0xbc29fd00	-0.010375261
122	0xbdcb211b	-0.09918424
123	0x3dffa80f	0.124832265
124	0xbe0368fd	-0.12833019
125	0xbd241b92	-0.040065356
126	0xbd4fa70e	-0.050696425
127	0x3ba13b8c	0.0049204286
128	0xbceecb97	-0.029149814
129	0xbd4123d8	-0.047153324
130	0xbd0c81da	-0.034303524
131	0x3e05d55f	0.13069676
132	0xbe42120e	-0.189522
133	0xbd0f7482	-0.03502322
134	0x3defa804	0.11701968
135	0xbd3a79d7	-0.04552635
136	0xbb69ce3a	-0.00356759
137	0x3d3f193c	0.046654925
138	0x3d899464	0.067177564
139	0x3e19d5d7	0.1502298
140	0x3e490424	0.19630486
141	0x3e9d4a22	0.3072062
142	0x3e11cb85	0.14237793
143	0x3cfc53e8	0.030801728
144	0xbe44cf41	-0.19219686
145	0xbd4f8b18	-0.05066976
146	0x3d9ee4fc	0.07758519
147	0xbd229178	-0.03968951
148	0xbdeb50cf	-0.114900224
149	0x3c38a93d	0.011270818
150	0xbe80b6f3	-0.2513958
151	0xbdbef271	-0.09323586
152	0x3ca2c623	0.01986987
153	0x3e1dec71	0.15422226
154	0x3e01e247	0.12683974
155	0xbd3144a2	-0.043278344
156	0x3e2231a5	0.1583925
157	0xbdd91c8a	-0.106011465
158	0xbd857f39	-0.065184064
159	0xbdf3cca0	-0.119042635
160	0xbdb27239	-0.087131925
161	0x3e128502	0.14308551
162	0xbb3a9625	-0.002847084
163	0x395803a6	0.00020600724
164	0xbd880a74	-0.06642619
165	0x3c5242bc	0.0128332935
166	0xbd8ce5a2	-0.068797365
167	0x3d186e59	0.03721461
168	0xbe0bae83	-0.1364079
169	0xbc509d5f	-0.012732833
170	0x3dba4b16	0.09096353
171	0x3c75bc5d	0.014998523
172	0x3b7a3ec0	0.0038184375
173	0xbac6d189	-0.0015168648
174	0xbc3b2683	-0.011422756
175	0x3e005d42	0.12535575
176	0xbdad840f	-0.08472454
177	0xbc4faba2	-0.012675198
178	0x3d3635bd	0.044484843
179	0xbd0a1610	-0.033712447
180	0xbbbcc55d	-0.005760832
181	0xbca06851	-0.019580992
182	0x3d044063	0.032287966
183	0x3d1544bb	0.0364425
184	0x3c252792	0.010080235
185	0xbb910f42	-0.0044268677
186	0xbd6e3a03	-0.058160793
187	0xbae3a8ca	-0.0017369029
188	0xbdbee351	-0.09320701
189	0x3d3c100b	0.045913737
190	0x3e244124	0.16040474
191	0x3d7d0cfb	0.061779957
192	0xbdf8bebc	-0.12145755
193	0x3d2d10f4	0.042252496
194	0xbdcc8702	-0.09986688
195	0xbd92a230	-0.07159841
196	0xbe084d9b	-0.13310854
197	0x3dfcf03a	0.12350507
198	0xbdb698ba	-0.08915849
199	0x3cbb74fb	0.02288293
200	0xbc4750d2	-0.012165265
201	0x3e030d46	0.12798032
202	0xbdc002d5	-0.0937554
203	0xbcff6e59	-0.031180548
204	0xbd1a1cf2	-0.03762526
205	0x3e351a37	0.17685781
206	0x3cd2e2f8	0.025742993
207	0x3e228ade	0.15873286
208	0xbcbf1e7f	-0.023329971
209	0x3df68cb2	0.12038554
210	0x3c7f8d38	0.015597634
211	0x3c6e4550	0.014542893
212	0xbd4cc903	-0.049996387
213	0x3d8b09ed	0.067890026
214	0xbd0dca80	-0.034616947
215	0x3c41e6ef	0.011834844
216	0xbddcf06c	-0.10788044
217	0xbd3fcf33	-0.04682846
218	0x3d0a2a0a	0.033731498
219	0xbd0cd11e	-0.034379117
220	0xbbf2c3d3	-0.007408598
221	0x3e0cea97	0.13761364
222	0xbd2df0b8	-0.042465895
223	0x3dafe00a	0.08587654
224	0xbe0199f1	-0.1265638
225	0x3dba56c5	0.09098581
226	0xbe028cdd	-0.12749048
227	0x3d773500	0.06035328
228	0xbdf8399b	-0.12120362
229	0x3dd665f2	0.10468663
230	0xbd896977	-0.06709569
231	0x3e0e418e	0.13892195
232	0xbe1ead1a	-0.1549572
233	0x3e19c164	0.15015179
234	0xbdb8ac7f	-0.09017276
235	0x3d2a0f11	0.041518275
236	0xbdd12900	-0.10212898
237	0x3dd12520	0.10212159
238	0xbdd861de	-0.10565542
239	0xbe084cf6	-0.13310608
240	0xbdd827e7	-0.10554486
241	0xbcb20c53	-0.021734392
242	0x3d8fc477	0.070198946
243	0xbe1e547c	-0.15461916
244	0x3bbce956	0.0057651205
245	0xbe134098	-0.1438011
246	0x3d0c473c	0.034247622
247	0xbc521042	-0.012821259
248	0xbc06cb54	-0.008227188
249	0x3d7e5614	0.06209381
250	0xbdc0c424	-0.09412411
251	0xbe052ea6	-0.13006076
252	0xbc3ef6d0	-0.011655524
253	0xbcff3419	-0.031152772
254	0xbaa1094a	-0.0012286094
255	0xbc67ab0a	-0.0141399

bias f4 [128]
0	0xbdb61d2e	-0.08892284
1	0xbe2b8685	-0.16750534
2	0xbd66c1e4	-0.056337252
3	0xbd90949d	-0.07059596
4	0xbe102929	-0.14078201
5	0xbdd45830	-0.10368383
6	0xbd820f74	-0.06350604
7	0xbd69820f	-0.0570088
8	0xbe16415e	-0.14673373
9	0xbe3a884e	-0.18216059
10	0xbced324e	-0.028954651
11	0xbd5b4e6a	-0.05354158
12	0xbe34984f	-0.17636226
13	0xbe479149	-0.19489016
14	0xbdbe5b64	-0.09294775
15	0xbda33086	-0.079682395
16	0xbd92355f	-0.07139086
17	0xbc99e389	-0.018785255
18	0xbcc970c2	-0.0245899
19	0xbd949992	-0.07255854
20	0xbe092e2f	-0.13396524
21	0xbe3f8693	-0.1870368
22	0xbda420ab	-0.080140434
23	0xbdda084a	-0.10646112
24	0xbbfebcf0	-0.007773988
25	0xbdd81163	-0.10550191
26	0x3c1907cd	0.009340239
27	0x3d026115	0.031830866
28	0xbde001ba	-0.10937829
29	0xbda6b1fd	-0.08139417
30	0xbdbaca9c	-0.09120676
31	0x3b8a777c	0.0042256694
32	0xbe81c6ae	-0.25346893
33	0xbe387584	-0.18013579
34	0xbdfd3905	-0.12364391
35	0x3c264d7f	0.010150312
36	0xbdeb1623	-0.114788316
37	0xbe769dee	-0.24083683
38	0xbe6dd453	-0.23225527
39	0xbc50ecb2	-0.012751745
40	0xbde36622	-0.11103465
41	0x3c31522c	0.010822814
42	0xbd805c04	-0.062675506
43	0x3c231864	0.009954546
44	0xbcaf4dd7	-0.021399422
45	0xbe147429	-0.14497437
46	0xbbeed1d4	-0.007288197
47	0xbe27bd73	-0.16380863
48	0xbda272d2	-0.079320565
49	0xbbf61127	-0.007509369
50	0xbd096bdf	-0.03355014
51	0xbd297c20	-0.04137814
52	0xbe242ed6	-0.16033491
53	0xbad988d0	-0.001659656
54	0xbc3dabf6	-0.011576643
55	0xbd57548a	-0.052570857
56	0x3b690f48	0.0035562087
57	0xbe16bfa5	-0.14721544
58	0xbddc5819	-0.10758991
59	0xbdcaac40	-0.09896135
60	0xbe0d15c8	-0.1377784
61	0xbdcf2f97	-0.10116499
62	0x3a2add84	0.0006517994
63	0xbe32d063	-0.17462306
64	0xbdcf4fd0	-0.10122645
65	0xbcaa681c	-0.020801596
66	0xbddd48d1	-0.10804904
67	0xbda55567	-0.0807293
68	0xbb844669	-0.004036714
69	0xbdf66ef4	-0.120328814
70	0xbe60a969	-0.21939625
71	0xbc83353c	-0.016016595
72	0xbe1287a2	-0.14309552
73	0x3cca3f31	0.024688335
74	0xbc0e502e	-0.0086861085
75	0xbdb50dc9	-0.0884052
76	0xbd8012c9	-0.06253583
77	0xbd3de1b3	-0.04635782
78	0xbd0078f5	-0.031365354
79	0xbe0ed58d	-0.1394865
80	0xbd3d58b5	-0.046227176
81	0x3bac5031	0.005258583
82	0xbc973f5d	-0.018462831
83	0xbcfec918	-0.031101748
84	0x3d9a80df	0.075441115
85	0x3c75c610	0.015000835
86	0xbdb57cb7	-0.08861678
87	0xbe48ae06	-0.19597635
88	0xbe55b7c3	-0.20870881
89	0xbd8c752d	-0.06858287
90	0xbd498d63	-0.049207103
91	0x3c2e0b2e	0.010622783
92	0xbe40148e	-0.18757841
93	0xbb2fcafe	-0.0026823874
94	0xbe24f288	-0.16108143
95	0xbd05cb72	-0.032664724
96	0xbc8c0c7e	-0.0170958
97	0xbdb45bb4	-0.088065535
98	0xbe4aee0b	-0.19817369
99	0x3cede08a	0.029037733
100	0xbe101967	-0.1407219
101	0xbd25a07d	-0.040436257
102	0xbd98b7ad	-0.074569084
103	0x3cfa39ae	0.030545082
104	0xbe02b99c	-0.12766117
105	0xbdd5beea	-0.104368046
106	0xbe1ab81b	-0.15109293
107	0xbd991316	-0.074743435
108	0xbe950127	-0.29102442
109	0xbd7f91b5	-0.062394816
110	0xbdccb1df	-0.09994864
111	0x3cbcafdf	0.02303308
112	0xbe296bef	-0.1654508
113	0xbdb60a35	-0.088886656
114	0xbe4916a5	-0.19637544
115	0xbc5e97ad	-0.013585967
116	0xbc7a838b	-0.015290151
117	0x3cc82993	0.024433887
118	0xbd246d2e	-0.040143184
119	0xbe02f4a7	-0.1278864
120	0xbcf5a07e	-0.029983755
121	0xbe147bfe	-0.14500424
122	0x3d9b2507	0.07575422
123	0xbe133d53	-0.14378862
124	0xbc536281	-0.012901903
125	0xbe103d67	-0.14085923
126	0xbd45bbd1	-0.04827482
127	0xbdeacf68	-0.11465341

weight f4 [128, 128]
0	0xbdaa646a	-0.08319934
1	0x3debd32b	0.115148865
2	0xbe22f4a3	-0.15913634
3	0xbe53c079	-0.20678891
4	0xbbe12cce	-0.006871796
5	0xbe2ff170	-0.17181945
6	0x3d4bbc18	0.049739927
7	0x3cd63637	0.026148899
8	0xbde470df	-0.11154341
9	0xbe3293f3	-0.1743925
10	0xbe7fb76c	-0.24972314
11	0xbd718d60	-0.058972716
12	0xbddb4df5	-0.107082285
13	0x3d00b72c	0.031424686
14	0x3d76d080	0.060257435
15	0xbc8fb36f	-0.017541615
16	0xbd95f6ed	-0.07322488
17	0x3c69f0bc	0.014278587
18	0x3c4407dd	0.011964765
19	0x3d0c7902	0.03429509
20	0xbd277c59	-0.04089007
21	0xbddc17dc	-0.10746738
22	0xbcc81327	-0.024423195
23	0xbd908bec	-0.07057938
24	0x3e340eea	0.17583814
25	0x3d9b0c49	0.075707026
26	0x3cf87795	0.030330459
27	0xbcb052ff	-0.02152395
28	0xbd2a41d7	-0.041566696
29	0xbcce38e5	-0.025173614
30	0x3de67541	0.11252833
31	0xbcb002d6	-0.021485727
32	0xbe8b6c14	-0.27230895
33	0x3d8b6e36	0.068081304
34	0x3d1ab058	0.03776583
35	0x3d1dd48b	0.038532775
36	0x3b8c0e72	0.004274183
37	0x3d34fe5e	0.044187896
38	0xbd16d9ae	-0.03682869
39	0x3b7cf6f1	0.0038599337
40	0xbdce7e63	-0.100827
41	0xbcdd5353	-0.027017271
42	0x3c345026	0.011005437
43	0xbbccd940	-0.006251484
44	0xbe012bb0	-0.12614322
45	0xbe0e752d	-0.13911887
46	0x3be4e9bd	0.0069858716
47	0x3caa325a	0.020775963
48	0xbc096b2a	-0.008387366
49	0xbdbc5457	-0.09195774
50	0x3d0bb03c	0.034103617
51	0xbdc156bd	-0.09440372
52	0xbd3da3e3	-0.046298873
53	0xbd9724b1	-0.07380045
54	0xbe4ee37b	-0.20203964
55	0x3db840f8	0.08996767
56	0xbd010444	-0.03149821
57	0xbb37592c	-0.0027976735
58	0x3d148bfe	0.03626632
59	0x3d6053be	0.054767363
60	0x3e10005f	0.14062642
61	0x3ccd4583	0.02505756
62	0x3d441d93	0.047879767
63	0x3c4253e4	0.011860821
64	0x3d837486	0.064187095
65	0xbdd0bbdd	-0.10192082
66	0x3df502f5	0.11963455
67	0x3bc9ad5e	0.0061547
68	0xbda04b91	-0.07826913
69	0x3d0990ad	0.03358524
70	0xbe23351e	-0.15938231
71	0x3d825036	0.06362955
72	0xbe105578	-0.14095104
73	0xbe561f31	-0.20910336
74	0x3e07af4b	0.13250463
75	0xbd195292	-0.03743226
76	0x3ce4e8ed	0.027943099
77	0x3c7976c3	0.015226069
78	0xbcd6bf31	-0.026214214
79	0xbded5c3e	-0.115898594
80	0x3c828393	0.01593188
81	0x3dceb2c8	0.100926936
82	0x3d5e8741	0.054328207
83	0xbd1875c2	-0.037221678
84	0xbc86420a	-0.016388912
85	0xbe3520ce	-0.17688295
86	0xbe3c7a6f	-0.1840608
87	0xbd4b1f33	-0.0495903
88	0x3d203008	0.039108306
89	0xbd0804fa	-0.03320787
90	0xbdbeb417	-0.09311693
91	0x3d441758	0.047873825
92	0x3ccb39de	0.024807867
93	0xbdb9a60e	-0.090648755
94	0xbe3a5fe7	-0.18200646
95	0xbd98d459	-0.07462377
96	0xbdb32eca	-0.08749159
97	0xbb928042	-0.004470856
98	0xbd8731b4	-0.06601277
99	0x3d36e939	0.044656012
100	0xbb6b61a9	-0.0035916364
101	0xbcd007fd	-0.025394434
102	0x3d280d16	0.041028105
103	0xbd276d09	-0.04087547
104	0xbc4df2f0	-0.012570128
105	0xbdcd3f8f	-0.100218885
106	0x3d15ec46	0.03660228
107	0xbdcd17bc	-0.100142926
108	0xbd533a50	-0.051569283
109	0x3de9a400	0.11408234
110	0xbc570ec9	-0.013126084
111	0xbd847003	-0.06466677
112	0x3dce7980	0.10081768
113	0x3ca23013	0.019798314
114	0x3d95acf4	0.07308379
115	0x3d034846	0.032051347
116	0x3d8ab037	0.067718916
117	0xbd7a5969	-0.061120424
118	0xbd7e0383	-0.062015068
119	0xbd97024b	-0.07373484
120	0xbcfba259	-0.030717062
121	0xbe36b03d	-0.17840667
122	0x3c24732c	0.010037225
123	0xbcd12a10	-0.025532752
124	0x3df20aa5	0.118184365
125	0x3d769a57	0.060205784
126	0x3d5d3fcb	0.054015916
127	0xbd91856b	-0.071055256
128	0xbd5d3c9b	-0.054012876
129	0xbd69c002	-0.05706788
130	0x3d3d0bcc	0.04615383
131	0x3c9dc8ec	0.019260846
132	0x3ca69400	0.020334244
133	0x3cfcd0c9	0.030861275
134	0xbc6c6f52	-0.014430838
135	0x3d4fca67	0.050730135
136	0xbd00c7ff	-0.03144073
137	0x3dad8b0b	0.08473786
138	0x3d2853ae	0.04109543
139	0x3a40baf7	0.00073520787
140	0xbdb8f646	-0.09031348
141	0xbdb35390	-0.08756173
142	0xbd4cf579	-0.05003879
143	0xbd86140a	-0.06546791
144	0xbcb6ac97	-0.022299094
145	0xbd16ef67	-0.036849406
146	0x3ce21415	0.027597466
147	0xbe108b2b	-0.14115588
148	0x3c7e2b2a	0.015513221
149	0x3d98fe60	0.07470393
150	0xbd7ca678	-0.061682194
151	0xbc5cde86	-0.013480788
152	0xbe2a3579	-0.1662196
153	0xbd447fb9	-0.04797337
154	0x3d5e38ef	0.054253515
155	0x3d083540	0.03325391
156	0xbc6929ad	-0.014231128
157	0x3d121a34	0.03566952
158	0x3d688065	0.05676307
159	0x3d2f9bf7	0.04287335
160	0xbe217c8d	-0.15770169
161	0x3d71e40e	0.05905538
162	0x3de44ebf	0.11147832
163	0xbd631c93	-0.055447172
164	0xbe254258	-0.1613859
165	0xbd45d1a9	-0.04829565
166	0xbdd06c63	-0.10176923
167	0xbe32f1b2	-0.17475012
168	0xbcd4acc9	-0.025961297
169	0xbcf75b4d	-0.030194903
170	0x3dc02ffe	0.09384154
171	0x3cc7fd5a	0.0244128
172	0xbdc984ea	-0.098398045
173	0xbc6c3391	-0.014416591
174	0xbd7f165c	-0.062277183
175	0xbdf6ce4b	-0.12051066
176	0x3cf6155c	0.030039482
177	0xbe08dfbc	-0.13366598
178	0x3d46da90	0.04854828
179	0x3ce8fbd4	0.028440394
180	0x3de0c073	0.10974207
181	0xbc71d7dc	-0.014760938
182	0xbd6a735d	-0.057238925
183	0x3dd14e00	0.102199554
184	0xbc4053f9	-0.011738771
185	0xbdafdcd7	-0.08587044
186	0x3e2c77a2	0.16842511
187	0x394f323b	0.0001975977
188	0x3d5b0641	0.05347276
189	0x3d1ed955	0.038781483
190	0x3c8eb921	0.01742226
191	0x3be64154	0.0070268307
192	0xbdb3a153	-0.087710045
193	0x3dfa6714	0.12226692
194	0x3daa1efc	0.08306691
195	0xbd04c9d2	-0.032419033
196	0xbd2e1313	-0.04249866
197	0x3dc9a11a	0.09845181
198	0xbd2ff141	-0.042954687
199	0x3d59d48c	0.053181216
200	0x3b453603	0.0030092008
201	0x3c996c38	0.01872836
202	0xbcb71a17	-0.022351308
203	0xbca43bce	-0.020048048
204	0xbd464ab9	-0.048411105
205	0xbca28f80	-0.019843817
206	0xbe07b3cc	-0.13252181
207	0xbdb63cdc	-0.08898327
208	0xbe4ee558	-0.20204675
209	0x3d98cc72	0.0746087
210	0xbde0540e	-0.10953532
211	0xbd1bb016	-0.038009726
212	0x3d2dddc3	0.042447817
213	0x3c78acae	0.015177889
214	0x3d3d66f3	0.04624076
215	0xbb7fd37e	-0.0039035971
216	0xbd71c468	-0.0590252
217	0x3d7bd220	0.061479688
218	0xbe08d87d	-0.13363834
219	0x3d108227	0.035280373
220	0x3d36a59d	0.044591535
221	0x3c520afe	0.012820004
222	0xbd980271	-0.07422341
223	0xbd5835c4	-0.05278565
224	0xbd676cb1	-0.05650014
225	0xbb422987	-0.0029626803
226	0xbcaed5f2	-0.021342251
227	0x3d3032b4	0.043017104
228	0xbd02c0f4	-0.031922296
229	0x3d6e8e21	0.058241013
230	0xbd8344e1	-0.06409622
231	0xbd8617a8	-0.06547481
232	0xbe20e490	-0.1571219
233	0x3d17a4ef	0.037022527
234	0xbd9de477	-0.07709592
235	0xbbb89cf9	-0.005633947
236	0xbd89fe1f	-0.06737923
237	0x3b94ee89	0.004545037
238	0xbe12ad8f	-0.1432402
239	0xbda8ee4c	-0.082485765
240	0xbe39da2c	-0.18149632
241	0x3d2c1865	0.042015452
242	0xbd21cd59	-0.039502475
243	0xbd31eb2f	-0.04343718
244	0xbcd7ca64	-0.026341625
245	0x3dc23364	0.09482458
246	0x3d022de8	0.03178206
247	0x3d036f2c	0.032088444
248	0xbde40540	-0.11133814
249	0xbcd62bf6	-0.02614401
250	0x3d82ceda	0.0638711
251	0xbdf29519	-0.11844844
252	0x3d9fba1d	0.0779917
253	0xbe4a41d1	-0.1975167
254	0xbcfa89a3	-0.030583208
255	0x3d188dd5	0.037244637

bias f4 [128]
0	0x3ce93e09	0.028471963
1	0xbdb6457f	-0.08899974
2	0x3dc573d3	0.09641232
3	0xbdce857e	-0.10084055
4	0x3dbeb18d	0.09311209
5	0xbd444b3f	-0.047923323
6	0x3bf4915e	0.007463618
7	0x3c252b74	0.010081161
8	0xbdc07d8a	-0.09398945
9	0x3ce2f725	0.027705738
10	0xbe3bb316	-0.18330035
11	0x3cbcf952	0.023068104
12	0xbe352d52	-0.1769307
13	0x3ca3f624	0.02001483
14	0xbdd3a5e8	-0.103343785
15	0x3d6996f2	0.05702872
16	0x3de8d4ea	0.11368735
17	0x3c995712	0.018718276
18	0xbe142691	-0.14467837
19	0xbddb80b2	-0.10717906
20	0xbbfacba6	-0.0076536713
21	0xbe1e900b	-0.15484636
22	0x3d3d1181	0.04615927
23	0xbd85f1f0	-0.065402865
24	0x3d0c3f99	0.03424034
25	0x3d035524	0.03206362
26	0x3da741da	0.08166857
27	0x3dc3f838	0.09568828
28	0x3d0aa500	0.033848763
29	0x3da3ed77	0.08004277
30	0x3ddbaed0	0.10726702
31	0x3c22b4bd	0.009930787
32	0xbd27e6f2	-0.04099173
33	0xbe8464c1	-0.2585812
34	0xbd7e5d82	-0.062100895
35	0x3d11f772	0.035636373
36	0x3dd1d205	0.10245136
37	0x3d38b49e	0.045094125
38	0xbe6f05f2	-0.23342112
39	0x3d3421af	0.043977436
40	0x3de224d6	0.11042182
41	0xbc1533c4	-0.00910658
42	0xbe24b225	-0.16083582
43	0xbd771511	-0.060322825
44	0x3da2fbb2	0.07958163
45	0x3e028cb1	0.12748982
46	0x3dccb6d9	0.09995813
47	0xbd40968e	-0.04701858
48	0xbe064d82	-0.13115504
49	0xbd84c2cb	-0.06482466
50	0x3c4abba7	0.012373841
51	0xb90c7c6a	-0.00013397788
52	0xbd6930e9	-0.05693141
53	0x3df5f22e	0.12009083
54	0xbd41d6fe	-0.047324173
55	0x3d6c34b8	0.057667464
56	0x3d1cea63	0.038309466
57	0x3d6d5686	0.057943843
58	0x3d87c1b8	0.06628746
59	0xbdf21bbf	-0.118216984
60	0xbb8b2224	-0.0042460132
61	0x3e1055e7	0.14095269
62	0x3d1117e7	0.035423186
63	0xbc4a83e9	-0.012360551
64	0x3d8a46df	0.06751799
65	0x3d8b9cf5	0.068170466
66	0xbd53cbd5	-0.05170806
67	0x3e31f92f	0.17380212
68	0x3d5a077b	0.05322979
69	0x3d33e231	0.043916885
70	0x3c98b1c4	0.018639453
71	0xbe2ae904	-0.16690451
72	0xbe2a525d	-0.16632982
73	0x3e12a1d6	0.14319548
74	0xbe20f173	-0.15717106
75	0xbd99f795	-0.07517926
76	0xbda2c2f3	-0.0794734
77	0xbde4e9ba	-0.11177392
78	0xbdd58beb	-0.10427078
79	0xbdad4cef	-0.084619395
80	0x3d719334	0.058978274
81	0xbcdc6d62	-0.026907627
82	0xbe6f5374	-0.23371679
83	0x3dfb0bb4	0.122580916
84	0x3d585b34	0.052821353
85	0xbe120aed	-0.1426198
86	0x3ca52c66	0.020162772
87	0xbc4efba7	-0.012633241
88	0xbcf990a2	-0.030464474
89	0xbc81bef6	-0.015838128
90	0x3dfa3145	0.12216429
91	0x3e21ad01	0.15788652
92	0x3e0f5864	0.13998562
93	0x3c34da3e	0.011038361
94	0x3d16e691	0.03684098
95	0xbd0d4eb8	-0.0344989
96	0xbde857d6	-0.113448784
97	0x3d33cb65	0.043895144
98	0xbc55458a	-0.013017068
99	0x3de4eb6d	0.111777164
100	0xbcc937c6	-0.024562728
101	0xbd8368f4	-0.064165026
102	0x3b623d83	0.0034521527
103	0x3d5bd254	0.05366738
104	0x3d12b90e	0.035821013
105	0x3de652ec	0.11246285
106	0xbc10288e	-0.0087987315
107	0x3d161d08	0.03664878
108	0x3db2c559	0.08729047
109	0xbe98f002	-0.2987061
110	0x3d76b2ed	0.06022923
111	0xbdc5610c	-0.09637651
112	0x3dced8c3	0.10099938
113	0x3dc0f5d7	0.0942189
114	0x3ddc8088	0.10766703
115	0x3d27fc66	0.04101219
116	0xbe289c42	-0.16465858
117	0xbd8c162b	-0.06840166
118	0xbd8f8233	-0.070072554
119	0xbe824be6	-0.2544853
120	0x3e2da187	0.16956149
121	0x3d2b0890	0.041756213
122	0x3d98e6d0	0.07465899
123	0x3e0fc21d	0.14038892
124	0xbe442da2	-0.19158033
125	0x3d9de1bb	0.0770907
126	0xbc94366c	-0.018092357
127	0x3dda12f2	0.10648145

weight f4 [128, 128]
0	0x3caef23e	0.021355744
1	0x3e07b655	0.13253148
2	0x3da33386	0.07968812
3	0x3cf7557c	0.03019213
4	0xbcf3a414	-0.029741324
5	0x3a31d8e0	0.0006784331
6	0x3be797c4	0.0070676524
7	0x3e45fbc2	0.19334319
8	0x3d63b4b1	0.055592243
9	0xbe29b15a	-0.1657156
10	0xbe702112	-0.23450115
11	0x3d6dc561	0.058049563
12	0x3d4ea0c5	0.05044629
13	0xbd126cba	-0.03574822
14	0xbd4341a8	-0.047670037
15	0x3deb31f0	0.11484134
16	0xbe0016c1	-0.1250868
17	0xbd560de9	-0.05225936
18	0xbe23e729	-0.1600615
19	0xbc85fad2	-0.016354952
20	0x3e593653	0.2121213
21	0x3c8f0b21	0.017461361
22	0x3cf39e51	0.029738577
23	0x3b44af79	0.0030011816
24	0xbd5dc20b	-0.054140132
25	0x3b1f8755	0.0024342139
26	0xbe3ee8bf	-0.18643473
27	0x3e567e2c	0.20946568
28	0x3c8df6a1	0.017329516
29	0x3d8f8487	0.070076995
30	0xbca8fcbd	-0.020628328
31	0x3d9546ea	0.072889164
32	0x3de7cf31	0.113188155
33	0xbe2b1d1d	-0.16710325
34	0xbd816efb	-0.06319996
35	0x3e288649	0.16457476
36	0xbe63def1	-0.22253014
37	0xbdf4b7b3	-0.119491
38	0xbe48ec15	-0.19621308
39	0x3e0da99a	0.13834229
40	0xbcd51bab	-0.02601417
41	0xbdf0d43e	-0.11759232
42	0x3d09c29a	0.033632852
43	0x3dab6144	0.08368161
44	0x3dea82bc	0.11450717
45	0x3d54b2f8	0.05192849
46	0x3d4a0192	0.049317904
47	0xbe20f0ad	-0.1571681
48	0xbda46ff4	-0.08029166
49	0xbc68b9f1	-0.014204488
50	0x3c0a8726	0.008455073
51	0xbb6dfc1d	-0.0036313601
52	0x3a6ee604	0.00091132545
53	0x3d9ee4a2	0.07758452
54	0x3c5133de	0.012768714
55	0x3b85fcca	0.0040889727
56	0x3c832272	0.016007636
57	0xbdae99f3	-0.08525457
58	0xbd2a1392	-0.04152257
59	0xbe5ce26b	-0.21570747
60	0xbcace04d	-0.021103049
61	0x3b67bcf3	0.0035360425
62	0x3dea5547	0.114420466
63	0x3e13c6a7	0.14431249
64	0xbd2f0aa8	-0.042734772
65	0x3dd14947	0.10219055
66	0x3d291534	0.041279987
67	0xbbe5ac66	-0.007009077
68	0x3cb0fa3f	0.021603702
69	0x3b404ca0	0.0029342547
70	0xbd76d9c5	-0.060266275
71	0xbe248717	-0.16067158
72	0xbd9970d8	-0.07492226
73	0xbd5dcaf9	-0.054148648
74	0xbe062ebd	-0.13103767
75	0x3e1405ee	0.14455387
76	0x3d8cabd9	0.06868715
77	0x3cdaf778	0.02672933
78	0xbe1ec4aa	-0.15504709
79	0x3bda7851	0.006667175
80	0x3e2db173	0.16962223
81	0x3e005375	0.12531836
82	0xbda5a996	-0.080889866
83	0xbe002f96	-0.12518153
84	0x3cde518e	0.027138498
85	0xbe435ee0	-0.1907916
86	0xbd14fa9e	-0.03637182
87	0x3ded5791	0.115889676
88	0x3cc4291d	0.023945386
89	0x3e14661a	0.14492074
90	0xbd9b4007	-0.075805716
91	0x3dc617d0	0.096725106
92	0xbe2abde9	-0.16674007
93	0xbd58962d	-0.052877594
94	0x3be4c91b	0.0069819815
95	0x3d72ffcd	0.059325982
96	0xbdec7e9b	-0.115475856
97	0xbd05c737	-0.03266069
98	0xbb931af4	-0.004489297
99	0x3d6bc0d9	0.05755696
100	0x3d9aad39	0.07552571
101	0x3c3f52e5	0.011677478
102	0x3e1b7656	0.1518186
103	0x3dbebd8e	0.093134984
104	0xbcd2e1b4	-0.02574239
105	0xbdef382f	-0.11680638
106	0x393533c5	0.00017280791
107	0x3df31c61	0.11870647
108	0x3d2a24a4	0.04153885
109	0xbe1867ac	-0.14883298
110	0xbdabad7d	-0.083827
111	0xbdd76360	-0.10517001
112	0x3ce195c1	0.027537229
113	0x3d24c3b8	0.040225714
114	0xbd125cf9	-0.035733197
115	0x3d9c4edb	0.07632228
116	0xbe240050	-0.16015744
117	0x3c80e10e	0.015732314
118	0xbd19eb41	-0.03757787
119	0xbdda0278	-0.10645002
120	0x3d612f04	0.05497648
121	0x3de064f9	0.10956759
122	0xbe16b06b	-0.14715736
123	0xbdb2ac84	-0.08724311
124	0xbe474429	-0.19459595
125	0x3d9c7678	0.076397836
126	0x3cb88458	0.022524044
127	0x3e202243	0.1563807
128	0x3dbaba94	0.09117618
129	0xbd3f0cfc	-0.046643242
130	0xb84b069c	-4.8405127e-05
131	0xbe32de8a	-0.17467704
132	0x3de82d57	0.11336773
133	0xbda5b4e5	-0.080911435
134	0xbe21130f	-0.15729927
135	0x3e532e0a	0.20623031
136	0xbe69805f	-0.22802876
137	0xbd9cf850	-0.07664549
138	0x373be3a8	1.1199074e-05
139	0x3caed842	0.021343354
140	0xbde525b0	-0.11188829
141	0xbdf9208f	-0.12164413
142	0xbe86885c	-0.2627591
143	0x3d81da23	0.063404344
144	0xbe36644d	-0.17811699
145	0xbadf87f3	-0.0017054066
146	0xbc5695f8	-0.013097279
147	0xbdd3f427	-0.10349303
148	0x3cc4737d	0.02398085
149	0xbce8ee06	-0.02843381
150	0x3dc66834	0.09687844
151	0x3d4c49d9	0.049875114
152	0x3e2fae24	0.17156273
153	0xbe340609	-0.17580427
154	0xbdd2f981	-0.10301495
155	0x3d1de6b5	0.038550097
156	0x3df3991e	0.11894439
157	0xbd8bcf66	-0.068266675
158	0xbe6e2e33	-0.23259811
159	0x3de5ab16	0.11214273
160	0x3e4ed733	0.2019928
161	0xbb452ea6	-0.003008762
162	0xbd20a7c5	-0.039222497
163	0x3d0e6fdd	0.03477465
164	0xbea0e3dc	-0.31423843
165	0xbe414e36	-0.18877491
166	0x3c0afbc8	0.008482881
167	0x3d1155e0	0.035482287
168	0xbe6f45af	-0.23366426
169	0x3e1cc32e	0.1530883
170	0x3d9b4168	0.075808346
171	0x3cf5a41c	0.02998548
172	0xbcb6c588	-0.022310987
173	0x3d6450e5	0.05574121
174	0xbd318942	-0.04334379
175	0xbc56e25f	-0.0131154945
176	0xbdf27f8f	-0.11840736
177	0x3d8493c2	0.06473495
178	0x3dda015a	0.10644789
179	0x3e12d12f	0.1433761
180	0xbde41247	-0.111362986
181	0xbe1b0c45	-0.15141399
182	0x3d18ef73	0.03733773
183	0x3de2c2d0	0.11072314
184	0xbc6bc9ab	-0.014391343
185	0xbe2255f0	-0.15853095
186	0x3da66cf0	0.08126247
187	0xbe16259a	-0.14662781
188	0x3de51d5e	0.11187242
189	0x3dc1c9a0	0.09462285
190	0x3e27f9f0	0.16403937
191	0x3d85e10e	0.065370664
192	0x3e6d2e8e	0.2316229
193	0x3d9fc8a0	0.07801938
194	0x3d8ecd45	0.06972746
195	0xbd06b8f5	-0.032891233
196	0x3e35bd12	0.17747906
197	0xbe2e57cd	-0.17025681
198	0x3d86a278	0.06573957
199	0xbcc6535d	-0.024209673
200	0xbe1b1497	-0.15144573
201	0xbe37089d	-0.1787438
202	0xbd9ea93a	-0.07747121
203	0x3e22457c	0.15846819
204	0x3d7a7a22	0.06115163
205	0xbe52cc46	-0.20585737
206	0xbc848ef5	-0.016181448
207	0xbcefea9d	-0.029286677
208	0x3d41188d	0.047142554
209	0x3ddb5afb	0.107107125
210	0xbb1382c9	-0.0022508374
211	0xbe07cccb	-0.13261716
212	0xbe3dd305	-0.18537529
213	0xbe3632e1	-0.17792846
214	0x3c2846cf	0.010270788
215	0x3e2f80d9	0.17138995
216	0x3e34353a	0.1759843
217	0x3dcc1481	0.09964848
218	0xbe455b31	-0.19273068
219	0xbc6e6ae4	-0.014551852
220	0xbe871ca0	-0.26389027
221	0xb9aa2cb9	-0.00032458248
222	0xbe8025e9	-0.25028923
223	0x3dd6d65d	0.10490105
224	0xbe54b422	-0.2077184
225	0xbc4ceac4	-0.012507144
226	0x3e071377	0.13191019
227	0x3de4d6af	0.1117376
228	0xbcdf50da	-0.027260233
229	0x3db07aa1	0.086171396
230	0x3dc0cf7d	0.09414575
231	0x3e5ad1ab	0.21369044
232	0xbd6d5080	-0.0579381
233	0xbcd10a83	-0.025517708
234	0x3d198f24	0.037490025
235	0x3d41f866	0.04735603
236	0xbe14c853	-0.14529543
237	0x3d5e17b5	0.054221828
238	0x3d4fb502	0.050709732
239	0xbcfa0cc9	-0.030523675
240	0x3dd3c596	0.10340421
241	0x3cdbb568	0.0268199
242	0x3e7dd4c8	0.24788201
243	0x3da0cb3a	0.078512624
244	0xbcb4531b	-0.022012284
245	0xbd82ead1	-0.06392444
246	0x3a06395e	0.0005120243
247	0xbd2d9c5d	-0.042385448
248	0x3e177745	0.14791591
249	0x3de41cae	0.11138283
250	0xbd9c25e7	-0.07624417
251	0xbe91b49a	-0.284581
252	0xbe334eed	-0.17510577
253	0x3de5ddf5	0.112239756
254	0x3de23f48	0.11047226
255	0x3b8c42f3	0.004280442

bias f4 [128]
0	0x3cf04c3d	0.029333228
1	0x3cc2aba1	0.02376348
2	0xbe010bd6	-0.12602171
3	0xbd0aceb9	-0.033888552
4	0xbbffc942	-0.007805974
5	0x3e59f6c2	0.21285537
6	0xbd622cee	-0.05521863
7	0x3be69093	0.0070362776
8	0x3e143395	0.14472802
9	0x3e3a735a	0.18208066
10	0x3cbab473	0.022791123
11	0x3d0c03bb	0.034183245
12	0xbc8e2d98	-0.017355725
13	0x3d23af3c	0.03996204
14	0xbdc5b7ad	-0.09654174
15	0x3cbb30d4	0.022850432
16	0x3dd34a4e	0.10316907
17	0x3db4cdd5	0.08828322
18	0x3b8e97d5	0.004351596
19	0x3d2b5c3a	0.041836
20	0x3d727718	0.059195608
21	0x3e77058c	0.2412321
22	0x3dbe417b	0.09289833
23	0xbe6d6625	-0.23183496
24	0xbc1c34f4	-0.009534109
25	0x3dc6a1e5	0.09698848
26	0x3d86b83f	0.06578111
27	0xbcb269c3	-0.021778947
28	0xbe146da3	-0.14494948
29	0x3d471cee	0.048611574
30	0x3e06199d	0.13095708
31	0x3dfb7614	0.12278381
32	0xbc184455	-0.009293635
33	0x3da5d9b7	0.080981664
34	0xbb1bdfce	-0.002378452
35	0xbe1a1ae6	-0.15049323
36	0x3e08c93e	0.13358018
37	0x3d5b04f9	0.05347154
38	0x3da922e7	0.0825861
39	0xbe1c413a	-0.15259257
40	0xbd0febfd	-0.035137165
41	0xbe0fd004	-0.14044195
42	0x3d05ac9d	0.03263532
43	0x3e39786d	0.18112345
44	0x3d8f0ae5	0.069845
45	0xbca974f9	-0.02068566
46	0x3cafb617	0.021449132
47	0x3e14e082	0.14538768
48	0xbdca34ad	-0.09873328
49	0xbd3dc6ff	-0.046332356
50	0x3cc7e0e2	0.024399225
51	0xbd8a4f45	-0.06753401
52	0x3d81f977	0.0634641
53	0x3ddd7f1b	0.10815259
54	0x3c8115d6	0.015757482
55	0xbe22428f	-0.15845703
56	0x3c6b823f	0.014374315
57	0x3d5193d8	0.051166385
58	0x83e42fd7	-1.3411619e-36
59	0x3c0ce0ef	0.00859855
60	0x3d68e130	0.05685538
61	0x3c6b7c8f	0.014372959
62	0xbdade342	-0.084906116
63	0x3d19a290	0.037508547
64	0x3e6c4749	0.23074068
65	0xbcaa3b7e	-0.020780321
66	0x3e2336b0	0.1593883
67	0x3d742be6	0.059612177
68	0x3dad75ac	0.0846971
69	0x3cd83d56	0.026396435
70	0xbc0ab91e	-0.008466987
71	0xbdd2aecc	-0.10287246
72	0x3e0c98fe	0.13730237
73	0xbca2a25d	-0.019852811
74	0x3cf74ee7	0.03018899
75	0xbd092149	-0.03347901
76	0x3d72badb	0.05926023
77	0xbe2679c3	-0.16257386
78	0xbda632dd	-0.0811517
79	0xbcbe834e	-0.02325597
80	0x3dc4a300	0.09601402
81	0x3c22a648	0.00992734
82	0x3d50bcbb	0.050961237
83	0xbbae0a8c	-0.005311316
84	0xbe0b9070	-0.13629317
85	0xbe02f960	-0.12790442
86	0x3d40d9fc	0.047082886
87	0x3e191f80	0.14953423
88	0xbdf521ed	-0.119693615
89	0xbd04b2f8	-0.03239724
90	0x3e6b6fd4	0.22991878
91	0x3e8341b5	0.25636068
92	0xbdac945c	-0.08426735
93	0xbdc983fb	-0.098396264
94	0xbe156b14	-0.14591628
95	0x3df56ac5	0.11983255
96	0x3bd41e73	0.0064733564
97	0xbc066cee	-0.008204682
98	0x3d2f5866	0.042808913
99	0x3d254206	0.040346168
100	0xbc9a4ee1	-0.01883644
101	0xbdb3714f	-0.08761846
102	0x3e3e6066	0.1859146
103	0x3b2feff0	0.0026845895
104	0x3e66980e	0.22518942
105	0xbdb4d987	-0.088305525
106	0xbc89098a	-0.016728181
107	0xbd129d26	-0.0357944
108	0x3e531735	0.20614322
109	0x3e3af6fd	0.18258281
110	0xbd1187ca	-0.03552989
111	0x3caa0e57	0.02075879
112	0xbdba7d3b	-0.09105917
113	0x3b8a5c96	0.004222463
114	0xbd2b8ab6	-0.041880332
115	0x3dbfffab	0.09374937
116	0x3c0081da	0.007843459
117	0x3d7b911c	0.061417684
118	0x3ddf70e7	0.10910206
119	0x3d6d09ae	0.05787056
120	0xbc5fc365	-0.0136574255
121	0x3db93c5d	0.090447165
122	0x3cf4c303	0.029878145
123	0xbc4d5e6e	-0.012534721
124	0x3e135c27	0.14390622
125	0xbce4eccc	-0.027944945
126	0x3cd9729f	0.026543913
127	0xbdb91e20	-0.09038949

weight f4 [128, 128]
0	0x3dbcbf11	0.092161305
1	0xbd71921c	-0.05897723
2	0xbd20cc28	-0.0392572
3	0x3dff0e32	0.124538794
4	0x3d312b01	0.043253902
5	0xbd3faa64	-0.046793357
6	0xbe05c473	-0.1306322
7	0x39f8a6e4	0.0004742659
8	0x3c1a76c7	0.009427733
9	0x3ddb256e	0.107004985
10	0xbdf27181	-0.118380554
11	0xbd6050f6	-0.05476471
12	0xbd9e7e4c	-0.07738933
13	0xbbc251ce	-0.005930162
14	0x3df4270b	0.11921509
15	0xbdc4ccac	-0.096093506
16	0xbcdbc738	-0.026828393
17	0x3e3e367c	0.18575472
18	0xbdf72be6	-0.1206892
19	0xbdd9f980	-0.106432915
20	0x3c53e541	0.012933076
21	0xbe00d4c4	-0.12581164
22	0x3d928ec4	0.07156137
23	0xbe0a31f8	-0.13495624
24	0x3d9aa5e6	0.07551174
25	0x3dd1a8e4	0.102372915
26	0xbea29731	-0.31755975
27	0xbd9d5ca0	-0.076836824
28	0xbd789ed6	-0.060698353
29	0xbc0ba66d	-0.008523566
30	0xbc13f88d	-0.009031427
31	0x3dde365f	0.10850214
32	0xbe003cd1	-0.125232
33	0x3db31248	0.08743721
34	0x3e1bb11d	0.15204282
35	0xbb172e95	-0.0023068537
36	0xbdd9f79e	-0.10642932
37	0xbd782d32	-0.060589977
38	0x3e33df1b	0.17565577
39	0xbd9d2548	-0.076731265
40	0x3dc7daef	0.09758555
41	0xbd2be230	-0.041963756
42	0x3e343552	0.17598465
43	0x3c9177d1	0.017757328
44	0xbd14e500	-0.036351204
45	0x3cdd097e	0.026982065
46	0xbda58fdb	-0.08084079
47	0xbd440666	-0.047857665
48	0xbde9030e	-0.11377536
49	0x3cec2dc3	0.028830415
50	0x3bd35c35	0.006450201
51	0xbbed4ce8	-0.007241834
52	0xbda7d764	-0.081953794
53	0xbd5422dd	-0.05179106
54	0x3da4e5c9	0.080516405
55	0xbdd57f35	-0.104246534
56	0x3cbbd02f	0.022926418
57	0x3cb71230	0.02234754
58	0x03e83dca	1.36499205e-36
59	0x3d66655c	0.056249008
60	0x3df331f7	0.118747644
61	0x3dd080e0	0.10180831
62	0xbcfaab17	-0.03059916
63	0x3d6ac8dc	0.05732046
64	0x3e0600c7	0.13086234
65	0xbcd27802	-0.02569199
66	0xbca689ae	-0.020329323
67	0x3e271d28	0.16319716
68	0xbdfe04bb	-0.12403246
69	0xbdc61732	-0.09672393
70	0xbbf432d8	-0.00745235
71	0xbdaf986c	-0.08573994
72	0x3d5844e4	0.052800074
73	0xbdfec6bd	-0.1244025
74	0xbc1749a0	-0.009233862
75	0x3d68456d	0.056706835
76	0x3e150763	0.14553599
77	0xbe23f5d2	-0.16011742
78	0xbd5a8424	-0.053348675
79	0xbdf36e9f	-0.11886334
80	0x3e642d18	0.22282827
81	0x3e3c6c71	0.18400742
82	0x3cd74f59	0.026282953
83	0x3cb56b46	0.022145879
84	0xbdeefa21	-0.11668802
85	0xbd35e8c8	-0.04441145
86	0x3d438436	0.047733508
87	0xbca147a7	-0.019687487
88	0xbccdeb51	-0.025136622
89	0xbd9b90d3	-0.075959824
90	0xbb182b3d	-0.0023219131
91	0xbdbd8116	-0.09253137
92	0x3ceeadb2	0.029135559
93	0xbd41c81e	-0.047309987
94	0xbd874987	-0.06605821
95	0x3c9cf787	0.019160999
96	0xbe226df1	-0.15862252
97	0xbd2345ef	-0.039861616
98	0xbd7d52db	-0.061846595
99	0x3d6225ea	0.05521194
100	0xbd32d3fa	-0.043659188
101	0xbc07d999	-0.008291625
102	0x3dba9df2	0.09112157
103	0xbd95cdba	-0.0731463
104	0xbd1605aa	-0.036626495
105	0x3c5e5dff	0.013572215
106	0xbde22ff4	-0.110443026
107	0xbc0d319e	-0.008617787
108	0x3c730af8	0.014834158
109	0xbd958be5	-0.073020734
110	0xbdc3b2aa	-0.09555562
111	0xbd8e294f	-0.06941473
112	0xbc19681e	-0.009363202
113	0xbca99217	-0.020699544
114	0xbd91ebb6	-0.071250364
115	0xbceb7962	-0.028744403
116	0xbde63fa8	-0.1124261
117	0xbd6f654c	-0.058446214
118	0xbd9ad2f7	-0.075597696
119	0x3da6c47e	0.08142947
120	0xbde4e8a1	-0.11177183
121	0x3dd93782	0.106062904
122	0xbe057a9c	-0.13035053
123	0xbe1dd905	-0.15414818
124	0x3d944e9e	0.072415575
125	0xbdb6daf7	-0.08928483
126	0xbd98ba0c	-0.074573606
127	0xbd44b390	-0.048022807
128	0x3e9179bc	0.28413188
129	0x3a368688	0.0006962796
130	0x3dcc7090	0.09982407
131	0x3e3d2b7a	0.18473616
132	0xbd413dea	-0.047178186
133	0xbd408112	-0.04699809
134	0x3d2443c9	0.040103707
135	0x3e0407ca	0.12893596
136	0xbd497364	-0.04918231
137	0x3d3315f3	0.043722104
138	0x3c005ed4	0.007835109
139	0xbdbb1357	-0.09134548
140	0xbe07d868	-0.13266146
141	0xbe5a0ffd	-0.21295162
142	0x3e0a35c0	0.13497066
143	0xbd76669d	-0.060156453
144	0x3d12fa99	0.03588352
145	0x3e9ea231	0.30983117
146	0xbdbc8357	-0.092047386
147	0xbe16a945	-0.14713009
148	0xbd0be1ee	-0.03415101
149	0xbc6bafc3	-0.014385167
150	0x3dc57b2c	0.09642634
151	0xbca63a42	-0.020291451
152	0x3d988f70	0.074492335
153	0x3e35b1ec	0.17743653
154	0xbe33f624	-0.17574364
155	0xbdd9e5cc	-0.106395334
156	0xbd06f209	-0.032945666
157	0xbc9e9e6e	-0.019362655
158	0xbdb3584a	-0.08757074
159	0x3e55c329	0.20875229
160	0xbe1f74db	-0.1557192
161	0x3e0b2b8b	0.13590829
162	0x3e3bcdf3	0.18340282
163	0x3b1221fb	0.0022298086
164	0x3d58a4c1	0.052891497
165	0x3e19e653	0.15029268
166	0x3e579ee3	0.21056704
167	0x3b638533	0.0034716844
168	0x3df28e2d	0.11843524
169	0xbb44ec1b	-0.0030047956
170	0x3e0ab818	0.13546789
171	0xbd743e61	-0.0596298
172	0xbd9f6728	-0.07783347
173	0x3d74702f	0.0596773
174	0xbe08bac0	-0.1335249
175	0x3b7d8b23	0.0038687668
176	0x3bf95cec	0.007609954
177	0x3e0873b1	0.13325383
178	0xbdc0cf4f	-0.09414541
179	0xbd37e3e8	-0.044895083
180	0xbe05ff01	-0.13085558
181	0xbda09d20	-0.07842469
182	0x3df01501	0.11722756
183	0xbc1f6fd6	-0.009731254
184	0x3e0ac4c7	0.13551627
185	0x3e6383f5	0.22218306
186	0x03f34fa9	1.4300545e-36
187	0x3e2badea	0.16765562
188	0x3de8f78a	0.11375339
189	0x3e602dba	0.21892443
190	0x3dd15284	0.10220817
191	0xbda748bd	-0.081681706
192	0x3c6391b0	0.013889715
193	0xbaadeb25	-0.0013268931
194	0xbd4ca258	-0.04995951
195	0x3e250ae1	0.16117431
196	0x3d28d842	0.041221865
197	0xbe035fe6	-0.12829551
198	0xbd656dfb	-0.05601309
199	0xbe807276	-0.25087327
200	0x3dbf1001	0.093292244
201	0xbe2dc695	-0.16970284
202	0x3d48062d	0.048834015
203	0x3da3bb5f	0.079947226
204	0x3d331e5f	0.043730136
205	0xbe57a187	-0.21057712
206	0xbd3fe457	-0.04684862
207	0xbe0cdc70	-0.13755965
208	0x3e421e84	0.18956953
209	0x3e9ceb5c	0.30648315
210	0x3e059e1b	0.13048594
211	0x3db4c3e8	0.08826429
212	0x3d124b24	0.03571619
213	0x3b88ff48	0.0041808225
214	0xb833b9e5	-4.2850053e-05
215	0xbda81ad8	-0.08208245
216	0xbd71016c	-0.058839247
217	0xbdfe58e7	-0.124193005
218	0xbcada341	-0.02119601
219	0x3d816d48	0.06319672
220	0x3e115602	0.14192966
221	0xbe06571a	-0.13119164
222	0xbc46f0da	-0.012142384
223	0x3d333e1b	0.0437604
224	0x3c47bf78	0.012191646
225	0x3d8d89ca	0.06911047
226	0xbe30f43d	-0.1728067
227	0x3e46ec6b	0.19426124
228	0x3d9680e2	0.07348801
229	0xbdafed95	-0.08590237
230	0x3e1858cd	0.14877625
231	0xbe40ec6d	-0.1884019
232	0x3d620d17	0.055188265
233	0xbb87b1d7	-0.004141073
234	0xbdd2fc65	-0.10302047
235	0xbcaef645	-0.021357665
236	0x3de5a261	0.11212612
237	0xbd3a1a79	-0.045435403
238	0xbe319f6b	-0.1734597
239	0xbe256e79	-0.16155423
240	0xbd6b94c9	-0.05751494
241	0x3dd5e0ca	0.10443266
242	0x3cabdce3	0.02097935
243	0x3e1bb104	0.15204245
244	0xbe1ff395	-0.15620263
245	0xbdd6c6cc	-0.10487136
246	0xbdca072c	-0.09864649
247	0xbc9e2eda	-0.01930945
248	0xbe167c83	-0.14695935
249	0x3e3f8797	0.18704067
250	0x3c4f7cd6	0.012664041
251	0xbe6a5f91	-0.22888018
252	0xbde6cca7	-0.11269503
253	0xbe02b1a1	-0.12763073
254	0xbe1040e8	-0.1408726
255	0xbda2e71e	-0.07954238

bias f4 [128]
0	0x3de3bc0b	0.11119851
1	0xbb48731e	-0.0030586193
2	0x3eaa43bb	0.332548
3	0x3e3b398c	0.18283671
4	0x3e14e7a5	0.1454149
5	0xbd11c219	-0.035585497
6	0x3ec185a1	0.37797263
7	0xba9f7ab3	-0.0012167305
8	0x3e818199	0.25294188
9	0xbd6a506b	-0.0572056
10	0x3d9ab904	0.0755482
11	0x3edf4d11	0.43613485
12	0x3e9f4c90	0.311131
13	0x3e728561	0.23683693
14	0x3ed0f346	0.40810603
15	0x3c1a64d4	0.009423453
16	0x3deefb99	0.11669082
17	0x83e481e9	-1.34304615e-36
18	0x3e7cac70	0.24675155
19	0x3eb58fc4	0.35461247
20	0xbd204f1f	-0.039137956
21	0x3c975388	0.018472448
22	0xbd4e885f	-0.050423022
23	0x3ec325e4	0.38114846
24	0x3e99f15f	0.30066964
25	0x3d957dee	0.0729941
26	0x3c382388	0.01123894
27	0x3e84cce7	0.25937578
28	0xbeb4fbaa	-0.35348254
29	0x3ecf30a3	0.40466794
30	0xbe41159c	-0.188559
31	0xbd37f805	-0.044914264
32	0x3e73589a	0.23764268
33	0x3e4e2e9b	0.20134966
34	0x3e2e5ed5	0.17028363
35	0x3e372247	0.1788417
36	0x3e47119e	0.19440314
37	0x3e8934c4	0.2679807
38	0x3d9cbd04	0.07653239
39	0x3e59253f	0.21205615
40	0x3ea3f623	0.32023725
41	0x3e4c97f3	0.19979839
42	0xbce55370	-0.027993888
43	0x3eaf05bf	0.3418407
44	0xa4da650b	-9.47136e-17
45	0x3deaee2f	0.11471211
46	0x3e2118fd	0.15732189
47	0x3e546a35	0.2074364
48	0x3ecd4399	0.40090635
49	0x3e80fd22	0.25193125
50	0x3b2f8559	0.0026782362
51	0xbd71e34c	-0.059054658
52	0x3e2d7297	0.16938244
53	0xbcec39ca	-0.02883615
54	0xbd59b452	-0.053150482
55	0xbd80be87	-0.0628634
56	0x3e97bf74	0.29638255
57	0x3dad9ea2	0.084775224
58	0x3ecc682d	0.3992323
59	0x3c331ee8	0.010932662
60	0x3e0d5d8e	0.1380522
61	0xbdbed558	-0.09318036
62	0x3e8f6390	0.28005648
63	0xbe39fca1	-0.18162777
64	0xbd8b5797	-0.06803816
65	0x3c7ff39a	0.015622044
66	0x3cd7f4f3	0.026361918
67	0xbda27d6c	-0.079340786
68	0xbdd45b02	-0.10368921
69	0x3d7c120e	0.061540656
70	0x3e9a8079	0.30176142
71	0xbd440b83	-0.04786254
72	0x3e076bd7	0.13224731
73	0xbc99cdee	-0.018774953
74	0x3e91f145	0.28504387
75	0x3df9e22c	0.12201342
76	0xbe5f585b	-0.21811049
77	0x3c0f939d	0.008763221
78	0x3cb49c6a	0.02204724
79	0x3dadbdfa	0.08483501
80	0x3ed7d4ba	0.42154485
81	0xbd195440	-0.037433863
82	0xbda7c75c	-0.08192322
83	0x3ea41c76	0.32052964
84	0xbd8500a4	-0.06494263
85	0x3e1ea070	0.1549089
86	0xbb1f8273	-0.0024339228
87	0x83f6ea5a	-1.4512385e-36
88	0x3ec58c2e	0.3858351
89	0x3e49b3c8	0.19697487
90	0xbd59db18	-0.05318746
91	0x3d2db12d	0.042405296
92	0x3edf33d6	0.43594235
93	0xbbe705e9	-0.007050265
94	0x3c33da14	0.010977287
95	0x3db58ce1	0.08864761
96	0xbd929ea4	-0.071591645
97	0x3e148df2	0.14507273
98	0x3e735827	0.23764096
99	0x3e0d0393	0.13770895
100	0x3e4b6d3d	0.1986589
101	0x3db523a4	0.088446885
102	0x3e1e98e4	0.1548801
103	0x3df47e99	0.11938209
104	0xbc30bc13	-0.010787028
105	0x3eb69d5d	0.35666934
106	0xbd038776	-0.032111607
107	0x3e21235d	0.15736146
108	0x3e9261f4	0.28590357
109	0x3ecc68cd	0.39923707
110	0x3e7ad7ec	0.2449643
111	0x3eb2a877	0.34894153
112	0x3eda21fb	0.4260405
113	0xbd16b036	-0.03678914
114	0x3e548c4f	0.20756648
115	0x3c953673	0.01821444
116	0xbd668a1b	-0.05628405
117	0x3e81157e	0.2521171
118	0x3e9408f3	0.28913078
119	0x3e3f4d01	0.18681718
120	0x83df79ec	-1.3134754e-36
121	0xbe8bb226	-0.27284354
122	0x3da256e7	0.079267316
123	0x3e6f84f0	0.23390555
124	0xba9b3479	-0.00118412
125	0x3d1dbaa1	0.03850806
126	0x3c6ebf01	0.014571906
127	0xbae65e79	-0.0017575762

weight f4 [1, 128]
0	0xbe7a5de2	-0.24449876
1	0xbf41183b	-0.754276
2	0x3e95063a	0.29106313
3	0xbe98ba91	-0.2982984
4	0xbe92a26b	-0.2863954
5	0xbf523a93	-0.8212063
6	0x3ead5253	0.3385187
7	0xbf2eb087	-0.6823811
8	0xbe61f425	-0.2206579
9	0xbf42f3d7	-0.7615332
10	0xbf3d837c	-0.74028754
11	0x3ea4a132	0.32154232
12	0x3e8e4587	0.2778742
13	0x3e5d06d8	0.21584642
14	0x3e952200	0.29127502
15	0xbf4b6a46	-0.79459035
16	0x3e01973c	0.12655348
17	0x83a7227c	-9.823295e-37
18	0xbe6f1c9e	-0.2335076
19	0x3e87334d	0.26406327
20	0x3d3a7d61	0.045529727
21	0xbf1902fc	-0.5977018
22	0xbf3d4345	-0.7393077
23	0x3eaba8da	0.3352726
24	0xbe9c69e1	-0.3054953
25	0xbf438b2d	-0.7638424
26	0xbd14d55b	-0.036336284
27	0xbeaffb69	-0.34371498
28	0xbf26d5a5	-0.65169746
29	0x3ea439c5	0.32075325
30	0x3e84d514	0.25943816
31	0xbf3b00ed	-0.7304829
32	0xbe595e60	-0.21227407
33	0xbe357dcb	-0.17723767
34	0x3e3ec573	0.18630008
35	0x3e37faac	0.17966717
36	0x3e35e126	0.17761669
37	0x3e872906	0.26398486
38	0xbf304fc6	-0.68871725
39	0x3e277e32	0.16356733
40	0x3e961263	0.29310903
41	0xbe132c22	-0.14372304
42	0xbf239adc	-0.6390817
43	0x3ea653db	0.32485852
44	0x1c62e1b3	7.5068837e-22
45	0xbe40073a	-0.18752757
46	0xbec2fece	-0.38085026
47	0xbec99510	-0.39371538
48	0x3e9a7203	0.3016511
49	0x3e3f3fbb	0.18676655
50	0xbf508612	-0.81454575
51	0xbf4802be	-0.78129184
52	0xbe72089c	-0.23636097
53	0xbf47f944	-0.78114724
54	0xbf44d2ac	-0.7688396
55	0xbf43c938	-0.7647891
56	0x3e7fd8c0	0.24985027
57	0x3dc17099	0.094453044
58	0x3eadbd78	0.33933616
59	0xbf443a57	-0.7665152
60	0xbf16351c	-0.5867479
61	0xbf0e1532	-0.5550109
62	0x3e79f64b	0.2441036
63	0x3de7e18b	0.11322316
64	0xbf428cd2	-0.75996125
65	0xbf499b89	-0.7875295
66	0xbf457bbd	-0.77141935
67	0xbf184918	-0.5948653
68	0x3e0b7ceb	0.13621871
69	0xbea8933c	-0.3292483
70	0x3e68911e	0.22711608
71	0xbf619e19	-0.8813186
72	0xbd91f4d8	-0.07126778
73	0xbf5e3285	-0.86795837
74	0x3e9773fd	0.2958068
75	0xbdf2ca9d	-0.11855052
76	0xbeb73d4a	-0.35788947
77	0x3da5a0da	0.080873206
78	0xbf1cb7aa	-0.6121775
79	0xbf1cd349	-0.61259896
80	0x3e87b538	0.26505446
81	0x3e41214e	0.18860361
82	0xbf3e0d3e	-0.74238956
83	0x3ea689b8	0.32526946
84	0xbf5436d6	-0.82896173
85	0x3e4f92e8	0.20270884
86	0xbf4bc155	-0.79591876
87	0x83f580af	-1.442935e-36
88	0x3ebdf430	0.37100363
89	0xbe53699d	-0.20645757
90	0x3dc72819	0.09724445
91	0xbf1a1694	-0.601907
92	0x3e989e27	0.2980816
93	0xbf3edce5	-0.7455581
94	0xbf3d8fa7	-0.7404732
95	0xbf1dd774	-0.6165688
96	0x3db1cf8f	0.08682167
97	0x3e0152b4	0.12629205
98	0xbe58a763	-0.21157603
99	0xbe02dd28	-0.12779677
100	0x3e83c36d	0.25735036
101	0xbf3c397d	-0.7352522
102	0x3e3cba4d	0.18430443
103	0xbf2b951a	-0.67024386
104	0x3efc3605	0.49259964
105	0x3e979663	0.29606923
106	0xbf6429e8	-0.89126444
107	0xbe831222	-0.25599772
108	0xbed7c480	-0.42142105
109	0x3ebce3a5	0.3689243
110	0xbe69287a	-0.22769347
111	0x3e93dd89	0.28879955
112	0x3eafa2b5	0.34303823
113	0xbd6590a9	-0.05604616
114	0x3e192118	0.1495403
115	0x3d805940	0.06267023
116	0xbf3a9d33	-0.72896117
117	0x3e69f35f	0.22846745
118	0x3e8b5ba7	0.27218363
119	0x3e3f95a7	0.18709432
120	0x03ef5816	1.4067381e-36
121	0xbf06ce08	-0.5265813
122	0xbf48987c	-0.7835767
123	0xbe1efb24	-0.1552549
124	0xbf4e0c8c	-0.80487895
125	0xbf23b438	-0.63946867
126	0xbf456b8a	-0.77117217
127	0xbf4f713b	-0.8103215
